…
[2021-02-16 08:03:09] - Training 	 Epoch: 24 	 Loss: 0.024962 	 Accuracy 0.89 	 Precision: 0.88 	 Recall: 0.89 	 F1: 0.88
[2021-02-16 08:03:14] - Validation 	 Epoch: 24 	 Loss: 0.064135 	 Accuracy 0.91 	 Precision: 0.91 	 Recall: 0.90 	 F1: 0.91


[2021-02-16 08:03:14] - Evaluation: <class 'algorithms.lstm.LSTM_CAE_tile_by_tile.LSTMCAEModel'>
[2021-02-16 08:03:18] - Evaluation 	 Epoch: 0 	 Loss: 0.076558 	 Accuracy 0.90 	 Precision: 0.89 	 Recall: 0.88 	 F1: 0.89

[2021-02-16 08:03:18] - Saved model as caelstm_section_lstm_training_uniform_random_fill_15000_block_map_15000_house_15000_model
[2021-02-16 08:03:18] - Model: LSTMCAEModel(
  (_normalisation_layer1): BatchNorm1d(112, eps=1e-05, momentum=0.1, affine=True, track_running_stats=True)
  (_lstm_layer): LSTM(112, 8, num_layers=2, batch_first=True)
  (_normalisation_layer2): BatchNorm1d(8, eps=1e-05, momentum=0.1, affine=True, track_running_stats=True)
  (_fc): Linear(in_features=8, out_features=8, bias=True)
  (_LSTMCAEModel__encoder): CAE(
    (encoder): CAEEncoder(
      (conv1): Conv2d(1, 64, kernel_size=(3, 3), stride=(1, 1), padding=(1, 1))
      (bn1): BatchNorm2d(64, eps=1e-05, momentum=0.1, affine=True, track_running_stats=True)
      (conv2): Conv2d(64, 32, kernel_size=(3, 3), stride=(1, 1), padding=(1, 1))
      (bn2): BatchNorm2d(32, eps=1e-05, momentum=0.1, affine=True, track_running_stats=True)
      (conv3): Conv2d(32, 16, kernel_size=(3, 3), stride=(1, 1), padding=(1, 1))
      (bn3): BatchNorm2d(16, eps=1e-05, momentum=0.1, affine=True, track_running_stats=True)
      (conv4): Conv2d(16, 8, kernel_size=(3, 3), stride=(1, 1), padding=(1, 1))
      (bn4): BatchNorm2d(8, eps=1e-05, momentum=0.1, affine=True, track_running_stats=True)
      (latent_linear): Linear(in_features=128, out_features=100, bias=True)
      (bn_latent): BatchNorm1d(100, eps=1e-05, momentum=0.1, affine=True, track_running_stats=True)
    )
    (decoder): CAEDecoder(
      (latent_linear): Linear(in_features=100, out_features=128, bias=True)
      (bn_latent): BatchNorm1d(128, eps=1e-05, momentum=0.1, affine=True, track_running_stats=True)
      (deconv1): ConvTranspose2d(8, 16, kernel_size=(2, 2), stride=(2, 2))
      (bn1): BatchNorm2d(16, eps=1e-05, momentum=0.1, affine=True, track_running_stats=True)
      (deconv2): ConvTranspose2d(16, 32, kernel_size=(2, 2), stride=(2, 2))
      (bn2): BatchNorm2d(32, eps=1e-05, momentum=0.1, affine=True, track_running_stats=True)
      (deconv3): ConvTranspose2d(32, 64, kernel_size=(2, 2), stride=(2, 2))
      (bn3): BatchNorm2d(64, eps=1e-05, momentum=0.1, affine=True, track_running_stats=True)
      (deconv4): ConvTranspose2d(64, 1, kernel_size=(2, 2), stride=(2, 2))
      (bn4): BatchNorm2d(1, eps=1e-05, momentum=0.1, affine=True, track_running_stats=True)
    )
  )
)
[2021-02-16 08:03:18] - Model loss: 0.07655754685401917
[2021-02-16 08:03:18] - Model accuracy: 0.8970309538850284
[2021-02-16 08:03:18] - Model precision: 0.8940108046995251
[2021-02-16 08:03:18] - Model recall: 0.8838751348385117
[2021-02-16 08:03:18] - Model f1: 0.888241198954175
[2021-02-16 08:03:18] - Model confusion matrix: 
…
