…
[2019-06-02 23:07:59] - Training 	 Epoch: 24 	 Loss: 0.031109 	 Accuracy 0.98 	 Precision: 0.98 	 Recall: 0.97 	 F1: 0.97
[2019-06-02 23:08:00] - Validation 	 Epoch: 24 	 Loss: 0.169480 	 Accuracy 0.96 	 Precision: 0.94 	 Recall: 0.95 	 F1: 0.94


[2019-06-02 23:08:00] - Evaluation: <class 'algorithms.lstm.LSTM_CAE_tile_by_tile.LSTMCAEModel'>
[2019-06-02 23:08:01] - Evaluation 	 Epoch: 0 	 Loss: 0.145604 	 Accuracy 0.96 	 Precision: 0.96 	 Recall: 0.96 	 F1: 0.96

[2019-06-02 23:08:01] - Saved model as caelstm_section_lstm_training_block_map_10000_model
[2019-06-02 23:08:01] - Model: LSTMCAEModel(
  (_normalisation_layer1): BatchNorm1d(112, eps=1e-05, momentum=0.1, affine=True, track_running_stats=True)
  (_lstm_layer): LSTM(112, 8, num_layers=2, batch_first=True)
  (_normalisation_layer2): BatchNorm1d(8, eps=1e-05, momentum=0.1, affine=True, track_running_stats=True)
  (_fc): Linear(in_features=8, out_features=8, bias=True)
  (_LSTMCAEModel__encoder): CAE(
    (encoder): CAEEncoder(
      (conv1): Conv2d(1, 64, kernel_size=(3, 3), stride=(1, 1), padding=(1, 1))
      (bn1): BatchNorm2d(64, eps=1e-05, momentum=0.1, affine=True, track_running_stats=True)
      (conv2): Conv2d(64, 32, kernel_size=(3, 3), stride=(1, 1), padding=(1, 1))
      (bn2): BatchNorm2d(32, eps=1e-05, momentum=0.1, affine=True, track_running_stats=True)
      (conv3): Conv2d(32, 16, kernel_size=(3, 3), stride=(1, 1), padding=(1, 1))
      (bn3): BatchNorm2d(16, eps=1e-05, momentum=0.1, affine=True, track_running_stats=True)
      (conv4): Conv2d(16, 8, kernel_size=(3, 3), stride=(1, 1), padding=(1, 1))
      (bn4): BatchNorm2d(8, eps=1e-05, momentum=0.1, affine=True, track_running_stats=True)
      (latent_linear): Linear(in_features=128, out_features=100, bias=True)
      (bn_latent): BatchNorm1d(100, eps=1e-05, momentum=0.1, affine=True, track_running_stats=True)
    )
    (decoder): CAEDecoder(
      (latent_linear): Linear(in_features=100, out_features=128, bias=True)
      (bn_latent): BatchNorm1d(128, eps=1e-05, momentum=0.1, affine=True, track_running_stats=True)
      (deconv1): ConvTranspose2d(8, 16, kernel_size=(2, 2), stride=(2, 2))
      (bn1): BatchNorm2d(16, eps=1e-05, momentum=0.1, affine=True, track_running_stats=True)
      (deconv2): ConvTranspose2d(16, 32, kernel_size=(2, 2), stride=(2, 2))
      (bn2): BatchNorm2d(32, eps=1e-05, momentum=0.1, affine=True, track_running_stats=True)
      (deconv3): ConvTranspose2d(32, 64, kernel_size=(2, 2), stride=(2, 2))
      (bn3): BatchNorm2d(64, eps=1e-05, momentum=0.1, affine=True, track_running_stats=True)
      (deconv4): ConvTranspose2d(64, 1, kernel_size=(2, 2), stride=(2, 2))
      (bn4): BatchNorm2d(1, eps=1e-05, momentum=0.1, affine=True, track_running_stats=True)
    )
  )
)
[2019-06-02 23:08:01] - Model loss: 0.14560355246067047
[2019-06-02 23:08:01] - Model accuracy: 0.9611758180809762
[2019-06-02 23:08:01] - Model precision: 0.9618803854554652
[2019-06-02 23:08:01] - Model recall: 0.956805413231978
[2019-06-02 23:08:01] - Model f1: 0.9589591512667297
[2019-06-02 23:08:01] - Model confusion matrix: 
…
