…
[2019-06-03 00:14:16] - Training 	 Epoch: 36 	 Loss: 0.019767 	 Accuracy 0.97 	 Precision: 0.97 	 Recall: 0.97 	 F1: 0.97
[2019-06-03 00:14:18] - Validation 	 Epoch: 36 	 Loss: 0.066242 	 Accuracy 0.97 	 Precision: 0.97 	 Recall: 0.97 	 F1: 0.97


[2019-06-03 00:14:18] - Evaluation: <class 'algorithms.lstm.LSTM_CAE_tile_by_tile.LSTMCAEModel'>
[2019-06-03 00:14:20] - Evaluation 	 Epoch: 0 	 Loss: 0.097563 	 Accuracy 0.95 	 Precision: 0.95 	 Recall: 0.95 	 F1: 0.95

[2019-06-03 00:14:20] - Saved model as caelstm_section_lstm_training_uniform_random_fill_10000_block_map_10000_model
[2019-06-03 00:14:20] - Model: LSTMCAEModel(
  (_normalisation_layer1): BatchNorm1d(112, eps=1e-05, momentum=0.1, affine=True, track_running_stats=True)
  (_lstm_layer): LSTM(112, 8, num_layers=2, batch_first=True)
  (_normalisation_layer2): BatchNorm1d(8, eps=1e-05, momentum=0.1, affine=True, track_running_stats=True)
  (_fc): Linear(in_features=8, out_features=8, bias=True)
  (_LSTMCAEModel__encoder): CAE(
    (encoder): CAEEncoder(
      (conv1): Conv2d(1, 64, kernel_size=(3, 3), stride=(1, 1), padding=(1, 1))
      (bn1): BatchNorm2d(64, eps=1e-05, momentum=0.1, affine=True, track_running_stats=True)
      (conv2): Conv2d(64, 32, kernel_size=(3, 3), stride=(1, 1), padding=(1, 1))
      (bn2): BatchNorm2d(32, eps=1e-05, momentum=0.1, affine=True, track_running_stats=True)
      (conv3): Conv2d(32, 16, kernel_size=(3, 3), stride=(1, 1), padding=(1, 1))
      (bn3): BatchNorm2d(16, eps=1e-05, momentum=0.1, affine=True, track_running_stats=True)
      (conv4): Conv2d(16, 8, kernel_size=(3, 3), stride=(1, 1), padding=(1, 1))
      (bn4): BatchNorm2d(8, eps=1e-05, momentum=0.1, affine=True, track_running_stats=True)
      (latent_linear): Linear(in_features=128, out_features=100, bias=True)
      (bn_latent): BatchNorm1d(100, eps=1e-05, momentum=0.1, affine=True, track_running_stats=True)
    )
    (decoder): CAEDecoder(
      (latent_linear): Linear(in_features=100, out_features=128, bias=True)
      (bn_latent): BatchNorm1d(128, eps=1e-05, momentum=0.1, affine=True, track_running_stats=True)
      (deconv1): ConvTranspose2d(8, 16, kernel_size=(2, 2), stride=(2, 2))
      (bn1): BatchNorm2d(16, eps=1e-05, momentum=0.1, affine=True, track_running_stats=True)
      (deconv2): ConvTranspose2d(16, 32, kernel_size=(2, 2), stride=(2, 2))
      (bn2): BatchNorm2d(32, eps=1e-05, momentum=0.1, affine=True, track_running_stats=True)
      (deconv3): ConvTranspose2d(32, 64, kernel_size=(2, 2), stride=(2, 2))
      (bn3): BatchNorm2d(64, eps=1e-05, momentum=0.1, affine=True, track_running_stats=True)
      (deconv4): ConvTranspose2d(64, 1, kernel_size=(2, 2), stride=(2, 2))
      (bn4): BatchNorm2d(1, eps=1e-05, momentum=0.1, affine=True, track_running_stats=True)
    )
  )
)
[2019-06-03 00:14:20] - Model loss: 0.09756267815828323
[2019-06-03 00:14:20] - Model accuracy: 0.9501329787234043
[2019-06-03 00:14:20] - Model precision: 0.9509861329188232
[2019-06-03 00:14:20] - Model recall: 0.9492924188387166
[2019-06-03 00:14:20] - Model f1: 0.9493020302724599
[2019-06-03 00:14:20] - Model confusion matrix: 
…
