…
[2021-01-13 15:32:19] - Training 	 Epoch: 24 	 Loss: 0.121185 	 Accuracy 0.73 	 Precision: 0.58 	 Recall: 0.57 	 F1: 0.55
[2021-01-13 15:32:22] - Validation 	 Epoch: 24 	 Loss: 0.297102 	 Accuracy 0.82 	 Precision: 0.83 	 Recall: 0.75 	 F1: 0.76


[2021-01-13 15:32:22] - Evaluation: <class 'algorithms.lstm.LSTM_CAE_tile_by_tile.LSTMCAEModel'>
[2021-01-13 15:32:24] - Evaluation 	 Epoch: 0 	 Loss: 0.169649 	 Accuracy 0.89 	 Precision: 0.83 	 Recall: 0.87 	 F1: 0.84

[2021-01-13 15:32:25] - Saved model as caelstm_section_lstm_training_uniform_random_fill_10000_block_map_10000_house_10000_model
[2021-01-13 15:32:25] - Model: LSTMCAEModel(
  (_normalisation_layer1): BatchNorm1d(112, eps=1e-05, momentum=0.1, affine=True, track_running_stats=True)
  (_lstm_layer): LSTM(112, 8, num_layers=2, batch_first=True)
  (_normalisation_layer2): BatchNorm1d(8, eps=1e-05, momentum=0.1, affine=True, track_running_stats=True)
  (_fc): Linear(in_features=8, out_features=8, bias=True)
  (_LSTMCAEModel__encoder): CAE(
    (encoder): CAEEncoder(
      (conv1): Conv2d(1, 64, kernel_size=(3, 3), stride=(1, 1), padding=(1, 1))
      (bn1): BatchNorm2d(64, eps=1e-05, momentum=0.1, affine=True, track_running_stats=True)
      (conv2): Conv2d(64, 32, kernel_size=(3, 3), stride=(1, 1), padding=(1, 1))
      (bn2): BatchNorm2d(32, eps=1e-05, momentum=0.1, affine=True, track_running_stats=True)
      (conv3): Conv2d(32, 16, kernel_size=(3, 3), stride=(1, 1), padding=(1, 1))
      (bn3): BatchNorm2d(16, eps=1e-05, momentum=0.1, affine=True, track_running_stats=True)
      (conv4): Conv2d(16, 8, kernel_size=(3, 3), stride=(1, 1), padding=(1, 1))
      (bn4): BatchNorm2d(8, eps=1e-05, momentum=0.1, affine=True, track_running_stats=True)
      (latent_linear): Linear(in_features=128, out_features=100, bias=True)
      (bn_latent): BatchNorm1d(100, eps=1e-05, momentum=0.1, affine=True, track_running_stats=True)
    )
    (decoder): CAEDecoder(
      (latent_linear): Linear(in_features=100, out_features=128, bias=True)
      (bn_latent): BatchNorm1d(128, eps=1e-05, momentum=0.1, affine=True, track_running_stats=True)
      (deconv1): ConvTranspose2d(8, 16, kernel_size=(2, 2), stride=(2, 2))
      (bn1): BatchNorm2d(16, eps=1e-05, momentum=0.1, affine=True, track_running_stats=True)
      (deconv2): ConvTranspose2d(16, 32, kernel_size=(2, 2), stride=(2, 2))
      (bn2): BatchNorm2d(32, eps=1e-05, momentum=0.1, affine=True, track_running_stats=True)
      (deconv3): ConvTranspose2d(32, 64, kernel_size=(2, 2), stride=(2, 2))
      (bn3): BatchNorm2d(64, eps=1e-05, momentum=0.1, affine=True, track_running_stats=True)
      (deconv4): ConvTranspose2d(64, 1, kernel_size=(2, 2), stride=(2, 2))
      (bn4): BatchNorm2d(1, eps=1e-05, momentum=0.1, affine=True, track_running_stats=True)
    )
  )
)
[2021-01-13 15:32:25] - Model loss: 0.16964858770370483
[2021-01-13 15:32:25] - Model accuracy: 0.8888888888888888
[2021-01-13 15:32:25] - Model precision: 0.8316572758286341
[2021-01-13 15:32:25] - Model recall: 0.8656524367831572
[2021-01-13 15:32:25] - Model f1: 0.838278493917435
[2021-01-13 15:32:25] - Model confusion matrix: 
…
